scoring_model_source/model_test_pron+articulation/lang_en/pron_articulation_mlp_checkpoint.pt (torch, 266200 bytes, 3 tensors)

weight f4 [64, 1024]
0.25695398 -0.60235333 -0.032890286 -0.16664366 0.049293824 0.3631422 0.060269002 0.09367406
-0.3689277 1.2137794 0.25429866 -0.18883424 0.047872677 0.060353503 1.3489035 -0.33887988
-0.14138857 -0.22072618 0.038290355 0.33592457 0.030425165 -0.051666744 0.0076499516 0.058482014
-0.21897565 0.08820035 0.63666356 0.12444522 -0.0084351385 0.027782278 0.08043366 0.057163663
0.05196111 -0.1738179 -0.026987962 0.98046017 0.18231116 -0.16269694 0.17065774 0.22399665
0.016823653 -0.29419228 0.094866 0.033092484 -0.075842105 -0.0510815 -0.07731422 1.2358043
-0.3507012 -0.058086436 0.038986668 0.17902207 -0.20981443 0.28580296 -0.7100696 0.07690107
-0.1283352 -0.14036246 1.9630488 0.28844592 0.10065474 -0.1079356 -0.17205888 -0.023757713
-0.07947283 0.16022265 0.1043943 0.0089603355 0.06529539 -0.57012427 -0.20071608 -0.009121023
0.04830068 0.030852983 -0.7580545 -0.036939666 -0.013905518 0.10979828 -0.079110004 0.06617675
-0.059491016 -0.015107619 -0.22833812 0.04947522 -0.41291997 -0.032842766 -0.27804953 0.33983672
0.08997138 -0.12745586 3.8484445 -0.29690334 -0.00053346663 0.1524031 -0.67534095 -0.10022171
0.7532639 -0.14392862 0.27784932 0.052025564 0.20042855 0.13756905 -0.11964899 -0.020411078
0.052593682 -0.23623064 -0.08764885 -0.10982309 -0.08639975 -0.07876427 -0.017766265 -0.35670632
0.019735347 -0.01222594 -0.71825993 -0.30245405 -0.06439474 -0.10213948 -0.04842658 0.61305887
0.07442687 -0.13818906 -0.10290227 0.14910294 -0.050640244 -0.09020337 0.063261874 0.15630443
0.16489464 -0.03840055 -0.6066804 0.11282864 -0.30597392 0.04074698 -0.016045153 0.01753319
-0.2243476 -0.038041648 0.21041302 -0.26929218 0.049990546 -0.71295816 -0.17351462 0.11698203
0.047665022 -0.041120894 0.6394335 -0.07968309 -0.07981304 -0.052893028 0.030411465 0.022671688
-0.009805214 -0.22281988 -0.16191627 -0.006343778 0.5037902 0.009814237 -0.06422242 0.5516516
0.026243458 -0.10731619 -0.037960388 -0.09339835 -0.47739238 -0.01948723 -0.22020078 0.006810656
0.03501776 -0.12631188 0.18165398 0.1295108 0.04716749 -1.5103164 -0.04249968 -0.01713415
0.3110428 -0.048362605 0.08609802 0.016961 -0.94863 -0.3533093 0.06538772 -0.46958828
0.5008194 0.040691614 -0.085677244 -0.17091279 0.3686544 -0.041828584 -0.05461651 -0.09638456
-0.21059383 1.2089317 0.04245689 -0.19032496 0.06594629 -0.23612577 -0.115000464 -0.08194564
0.22951171 0.14998837 0.11671565 0.8847685 0.4765465 0.20272078 -0.045536373 0.023418302
-0.97759706 -0.03736239 0.51908916 0.14380352 -0.26569715 -0.09749745 -0.9305311 0.01701276
0.1802955 0.46081448 0.16895188 0.040471748 -0.06673813 -0.04565409 -0.12335176 -0.00216945
-0.07446972 -0.115219936 0.04349522 -0.082561076 -0.30784643 0.13214618 -0.13684237 0.13843831
0.26853174 0.20229664 0.21662946 -0.015390861 0.036103796 -0.6126661 -0.35430732 0.41396666
-0.4743364 0.035492137 -1.1300532 0.023146639 -0.12056523 0.33396873 0.171874 -0.04016755
0.15240973 0.21267094 -0.041486155 -0.027283402 0.49274492 0.03862308 0.043629315 -0.08919461
00000000: 798f 833e d433 1abf f7b7 06bd a3a4 2abe
00000010: 52e8 493d c6ed b93e a1dc 763d 30d8 bf3d
00000020: 17e4 bcbe 205d 9b3f 6f33 823e c35d 41be
00000030: 2416 443d 3c35 773d dfa8 ac3f aa81 adbe
00000040: 2ac8 10be 0b06 62be 59d6 1c3d 4efe ab3e
00000050: 323e f93c 82a0 53bd 72ac fa3b d68a 6f3d
00000060: 273b 60be 63a2 b43d 62fc 223f 23dd fe3d
00000070: 8933 0abc a997 e33c 67ba a43d 7224 6a3d
00000080: 2cd5 543d 52fd 31be dc15 ddbc 70ff 7a3f
00000090: c7af 3a3e 079a 26be e7c0 2e3e 615f 653e
000000a0: c2d1 893c 5fa0 96be 1b49 c23d fc8b 073d
000000b0: 1b53 9bbd d63a 51bd eb56 9ebd d62e 9e3f
000000c0: 1c8f b3be 0bec 6dbd 7cb0 1f3d 9051 373e
000000d0: 98d9 56be c454 923e 1fc7 35bf 4f7e 9d3d
000000e0: 4d6a 03be 2dbb 0fbe 2f45 fb3f 2faf 933e
000000f0: 1324 ce3d 570d ddbd 3430 30be 899f c2bc
00000100: a7c2 a2bd 6811 243e aecc d53d 5fce 123c
00000110: 97b9 853d aaf3 11bf 8488 4dbe 5870 15bc
00000120: efd6 453d 65bf fc3c dc0f 42bf 0c4e 17bd
00000130: f8d3 63bc ecdd e03d 6d04 a2bd ad87 873d
00000140: daac 73bd f285 77bc 78d1 69be 87a6 4a3d
00000150: 3f6a d3be 2386 06bd 825c 8ebe 14ff ad3e
00000160: ea42 b83d ca83 02be ea4c 7640 b703 98be
00000170: 57d8 0bba 8f0f 1c3e 25e3 2cbf 0a41 cdbd
00000180: e7d5 403f 0662 13be 4442 8e3e c218 553d
00000190: 243d 4d3e e7de 0c3e 880a f5bd 2235 a7bc
000001a0: 796c 573d 72e6 71be 3e81 b3bd eeea e0bd
000001b0: 5af2 b0bd 294f a1bd 8f8a 91bc 36a2 b6be
000001c0: 06ac a13c 4f4f 48bc e2df 37bf 42db 9abe
000001d0: 64e1 83bd 812e d1bd f35a 46bd 6df1 1c3f
000001e0: 1d6d 983d 6f81 0dbe 6dbe d2bd 71ae 183e
000001f0: 256c 4fbd 8bbc b8bd 718f 813d 450e 203e
00000200: 24da 283e e549 1dbd 684f 1bbf b412 e73d
00000210: 9da8 9cbe 4ee6 263d 2071 83bc c4a1 8f3c
00000220: 61bb 65be 8fd1 1bbd 8376 573e aae0 89be
00000230: e3c2 4c3d 6d84 36bf d1ad 31be 4694 ef3d
00000240: 663c 433d 626e 28bd eab1 233f e330 a3bd
00000250: 0575 a3bd 5ca6 58bd 7721 f93c fab9 b93c
00000260: 0ca6 20bc e52a 64be 61cd 25be 78df cfbb
00000270: 65f8 003f e5cb 203c 0b87 83bd 0a39 0d3f
00000280: 85fc d63c 97c8 dbbd 5a7c 1bbd a247 bfbd
00000290: c66c f4be afa3 9fbc 507c 61be ec2b df3b
000002a0: c86e 0f3d e757 01be 8003 3a3e 7b9e 043e
000002b0: b332 413d 0c52 c1bf 2514 2ebd eb5c 8cbc
000002c0: 0041 9f3e de17 46bd 2954 b03d ccf1 8a3c
000002d0: 6ad9 72bf f5e4 b4be ffe9 853d e06d f0be
000002e0: b335 003f 40ac 263d 8d77 afbd c303 2fbe
000002f0: 45c0 bc3e 7354 2bbd 90b5 5fbd 4565 c5bd
00000300: e9a5 57be 46be 9a3f 47e7 2d3d 8ce4 42be
00000310: d90e 873d f4ca 71be 5d85 ebbd 1ed3 a7bd
00000320: 1e05 6b3e 8d96 193e 9d08 ef3d 3080 623f
00000330: e7fd f33e 0996 4f3e 5984 3abd bdd7 bf3c
00000340: cd43 7abf 4e09 19bd 07e3 043f 3b41 133e
00000350: 7509 88be beac c7bd 4937 6ebf 585e 8b3c
00000360: 629f 383e e0ef eb3e b901 2d3e b4c5 253d
00000370: 00ae 88bd c8ff 3abd d99f fcbd 552d 0ebb
00000380: 9583 98bd 6ef8 ebbd 0b28 323d c815 a9bd
00000390: 0c9e 9dbe 5451 073e 6820 0cbe c6c2 0d3e
000003a0: fe7c 893e da26 4f3e 1dd4 5d3e f329 7cbc
000003b0: 93e1 133d afd7 1cbf c567 b5be 70f3 d33e
000003c0: 38dc f2be 3460 113d 95a5 90bf 059e bd3c
000003d0: e7ea f6bd f3fd aa3e bdff 2f3e bb86 24bd
000003e0: 4c11 1c3e 69c6 593e 63ed 29bd 7181 dfbc
000003f0: 1049 fc3e 3c33 1e3d a7b4 323d aaab b6bd

bias f4 [64]
0.049365394 -0.066972874 -0.016127229 -0.03062145 -0.027426798 -0.020359676 -0.03210509 -0.036447164
0.0017198975 -0.023698386 -0.080651045 0.08015153 -0.002388686 -0.06742049 -0.00612827 -0.09126437
-0.027986918 -0.07218845 0.07075258 0.0095058605 0.04307228 0.007507195 -0.013414282 -0.022348523
-0.051297743 0.08546387 -0.048495576 -0.07690729 -0.027875416 0.5589879 -0.051308826 -0.023408655
-0.015796673 -0.0839444 0.11435539 -0.049910508 -0.06749048 -0.0645649 -0.060836527 0.20541595
-0.010752816 -0.021905921 -0.02118896 -0.0004148446 0.105192795 -0.026280187 -0.013443366 -0.07404797
0.08311504 -0.031042596 -0.057833068 -0.020521082 -0.061639786 0.107813165 -0.008804411 -0.018980991
-0.05156196 -0.0019508712 -0.01853704 0.057935417 -0.03698582 -0.053655416 0.16037898 -0.05141896
00000000: 5e33 4a3d 1329 89bd 401d 84bc d6d9 fabc
00000010: 2aae e0bc 56c9 a6bc a080 03bd 9f49 15bd
00000020: 2f6e e13a 1e23 c2bc 602c a5bd 7c26 a43d
00000030: 808b 1cbb c113 8abd a8cf c8bb d0e8 babd
00000040: d244 e5bc 8ad7 93bd bbe6 903d 78be 1b3c
00000050: 8f6c 303d ebfe f53b 94c7 5bbc 4014 b7bc
00000060: 951d 52bd ae07 af3d 4ca3 46bd 9281 9dbd
00000070: fc5a e4bc d519 0f3f 3429 52bd 82c3 bfbc
00000080: 0668 81bc 0beb abbd 2933 ea3d f66e 4cbd
00000090: 7338 8abd 9a3a 84bd b92f 79bd 8f58 523e
000000a0: 942c 30bc 0c74 b3bc 7894 adbc 807f d9b9
000000b0: 526f d73d 8c49 d7bc 9041 5cbc 76a6 97bd
000000c0: 3838 aa3d 0b4d febc 5ee2 6cbd d41b a8bc
000000d0: 007a 7cbd 26cd dc3d 6040 10bc 067e 9bbc
000000e0: a232 53bd 60b4 ffba feda 97bc b04d 6d3d
000000f0: 717e 17bd c8c5 5bbd 633a 243e b09c 52bd

weight f4 [1, 64]
0.024048513 0.049835205 -0.030296594 0.058110535 -0.09117262 0.10532053 0.05261652 0.0034166102
-0.016736992 0.1078891 -0.005113499 0.04727116 0.011525214 0.00304078 0.11468381 -0.049541477
-0.008207381 0.04956333 0.03828375 0.016286317 0.025106518 0.016182823 -0.023526698 -0.017871916
-0.032957774 0.024594178 -0.028194593 -0.04706688 -0.011162481 -0.88851297 0.07097457 0.004038488
-0.04418449 0.00093485747 0.15285932 -0.03393727 -0.041366324 0.033548106 0.058988757 -0.2980586
-0.0070510693 -0.07223405 0.1113811 0.11008887 -0.20566992 -0.043551683 -0.026410624 -0.032379277
0.077455185 0.011861405 0.011741082 -0.10731788 -0.040318552 0.17348829 0.05311933 0.022639032
0.04043181 -0.1138816 -0.12085351 0.025835913 0.03638479 -0.020460883 0.19286063 -0.011036644
00000000: 6301 c53c 0020 4c3d 9030 f8bc 5005 6e3d
00000010: b6b8 babd 4ab2 d73d 6c84 573d 35e9 5f3b
00000020: 041c 89bc f6f4 dc3d 238f a7bb 679f 413d
00000030: 40d4 3c3c d347 473b 58df ea3d 01ec 4abd
00000040: 4078 06bc eb02 4b3d 6ccf 1c3d e26a 853c
00000050: 2fac cd3c d791 843c 10bb c0bc 2068 92bc
00000060: bbfe 06bd bb79 c93c 59f8 e6bc 33c9 40bd
00000070: d7e2 36bc 9675 63bf 1e5b 913d 4b55 843b
00000080: ccfa 34bd 3911 753a 2787 1c3e cf01 0bbd
00000090: bc6f 29bd bd69 093d 329e 713d 239b 98be
000000a0: a80c e7bb 72ef 93bd c61b e43d 4676 e13d
000000b0: 239b 52be 4063 32bd 185b d8bc 22a0 04bd
000000c0: d3a0 9e3d 5756 423c ab5d 403c 7ac9 dbbd
000000d0: 1125 25bd eaa6 313e a893 593d 7e75 b93c
000000e0: d39b 253d c23a e9bd 0c82 f7bd d6a5 d33c
000000f0: 3808 153d 959d a7bc 427d 453e 0ad3 34bc
