scoring_model_source/model_test_pron+articulation/lang_en/pron_articulation_checkpoint.pt (torch, 266168 bytes, 3 tensors)

weight f4 [64, 1024]
-0.054400165 -0.076942585 -0.03696953 -0.063916385 -0.0662387 0.04396715 -0.083105296 0.08943515
-0.0361744 0.043153897 0.048736647 0.08130346 0.08992182 -0.09093376 0.051518913 -0.064265154
-0.040502194 -0.039281894 0.037985563 0.077798344 -0.098144546 0.0561804 -0.08363818 -0.05939612
0.064119086 -0.05505767 -0.05989607 -0.08184492 -0.037225336 -0.05879869 0.076375104 0.05310002
0.10949513 -0.063189074 -0.086103745 -0.10862501 -0.09673532 0.051938277 0.08359909 -0.049908757
-0.050384294 -0.08123982 -0.07566448 0.094508775 -0.06654179 -0.044374418 -0.08483384 -0.055251066
-0.042712472 -0.06980282 -0.07392298 -0.03536184 0.103191376 -0.08817995 -0.08359952 -0.07209255
0.074592434 -0.04407125 -0.08207474 -0.051101036 0.067056835 -0.04825623 0.045947533 0.036091857
0.039320514 0.057184 -0.07334821 0.07273542 0.059480198 0.09418045 -0.040537708 -0.06634401
-0.046097532 -0.036202993 -0.086517386 0.06369234 -0.052520033 -0.08963218 -0.038912818 -0.09608987
0.09510619 -0.039611306 0.048151642 -0.045591813 -0.06150959 0.07662312 0.08176088 -0.11076979
-0.052288283 0.07166567 0.11807528 -0.05113486 0.07322577 -0.0714328 0.08742681 0.08076272
0.079707585 0.09274383 -0.08117019 -0.068057135 -0.068258636 0.097386055 0.08946167 0.05211134
-0.04753182 0.08910441 -0.045623746 0.06227651 -0.043113694 0.09530679 -0.092174195 -0.083085924
0.09805253 0.0967549 -0.056065485 0.0941292 0.061179567 -0.059912734 0.076859504 0.07742143
0.09039941 0.06959682 -0.037970886 0.066937774 -0.068332136 -0.049782448 -0.08352655 0.06812631
0.048744 0.057613164 -0.06572206 0.08187989 -0.07828542 -0.054462265 -0.06742003 -0.07771242
-0.08959089 0.08799396 0.049094465 -0.09481519 -0.068471335 0.055154327 0.08894657 -0.054270342
-0.045412928 0.08731336 -0.090666205 -0.08822856 -0.07697685 0.054289836 0.045242637 -0.080379225
-0.0754225 0.039767556 0.08596078 0.090386905 0.098281056 0.037190925 0.06953987 0.05001459
0.07680446 0.06333266 0.047123723 0.08615717 -0.088318475 0.058921304 -0.040302176 -0.07333463
0.08448513 -0.0855546 -0.075046815 0.046627253 0.07095502 0.039541826 0.05264233 0.078346394
-0.06753082 0.09816043 -0.07906786 -0.07189141 0.044881314 0.0679607 -0.061809577 0.088237695
-0.058407634 0.040230352 0.0887336 -0.092031814 -0.08417944 -0.06528253 0.04778632 0.09128316
0.06710273 0.05662915 -0.09862768 -0.049304828 -0.09393925 -0.057727408 -0.076045446 0.047101557
0.086212054 0.07590951 -0.040062573 -0.021959124 -0.0626562 -0.050169237 0.0868749 -0.0705376
0.043881588 -0.06392162 0.09780777 -0.06341793 -0.07700998 -0.09698281 -0.052669063 -0.08215719
0.0944532 -0.04403683 0.057136375 -0.08724239 -0.06760131 0.060411904 -0.06305207 0.05504581
0.07108642 -0.095837705 -0.09419735 0.0459435 -0.056461535 0.07068793 -0.08415794 0.0635107
-0.08270869 0.09530364 -0.038266193 0.058016606 -0.040973015 -0.058899656 -0.09548147 -0.030255264
-0.040046133 -0.047874432 0.07978067 0.05570246 -0.050191116 -0.08255589 0.09800956 0.07380162
0.09201387 0.063260086 0.07436801 -0.05295272 -0.060393754 -0.05690904 0.085145995 -0.039762326
00000000: b5d2 5ebd 1394 9dbd 5d6d 17bd 98e6 82bd
00000010: 28a8 87bd e616 343d 1c33 aabd c729 b73d
00000020: 9c2b 14bd 24c2 303d 14a0 473d 6e82 a63d
00000030: ee28 b83d 7b3b babd 7f05 533d 739d 83bd
00000040: a1e5 25bd 0de6 20bd c096 1b3d bd54 9f3d
00000050: 0200 c9bd 6b1d 663d 7e4a abbd 5949 73bd
00000060: de50 833d 2784 61bd 9555 75bd 4f9e a7bd
00000070: 9879 18bd e5d6 70bd 8d6a 9c3d 687f 593d
00000080: fc3e e03d 4669 81bd 2957 b0bd ca76 debd
00000090: 2b1d c6bd 3bbd 543d 0036 ab3d 206d 4cbd
000000a0: c35f 4ebd 1061 a6bd fbf5 9abd d18d c13d
000000b0: 1047 88bd f3c1 35bd 5dbd adbd f14e 62bd
000000c0: 46f3 2ebd c8f4 8ebd ee64 97bd 94d7 10bd
000000d0: 0056 d33d b197 b4bd 3a36 abbd 42a5 93bd
000000e0: ebc3 983d 0e84 34bd cd16 a8bd 524f 51bd
000000f0: 1855 893d 53a8 45bd 7b33 3c3d 0ed5 133d
00000100: 8c0e 213d c539 6a3d 9637 96bd 4ff6 943d
00000110: 82a1 733d aee1 c03d de0a 26bd 5edf 87bd
00000120: c4d0 3cbd 9749 14bd 0730 b1bd 2171 823d
00000130: 3f1f 57bd 1491 b7bd 0c63 1fbd c4ca c4bd
00000140: 09c7 c23d 773f 22bd a83a 453d 7bbe 3abd
00000150: 7bf1 7bbd 95ec 9c3d 4072 a73d 46db e2bd
00000160: 3d2c 56bd 73c5 923d 74d1 f13d c972 51bd
00000170: 64f7 953d 5c4b 92bd d40c b33d ed66 a53d
00000180: bb3d a33d 7af0 bd3d 8e3c a6bd 8a61 8bbd
00000190: 2fcb 8bbd 5772 c73d ae37 b73d b372 553d
000001a0: bab0 42bd 5f7c b63d f7df 3abd a715 7f3d
000001b0: fc97 30bd 3530 c33d d3c5 bcbd f428 aabd
000001c0: c4cf c83d 6f27 c63d eca4 65bd cfc6 c03d
000001d0: 6d97 7a3d 0e67 75bd 8468 9d3d 208f 9e3d
000001e0: 5323 b93d c788 8e3d 5c87 1bbd ac16 893d
000001f0: b8f1 8bbd aee8 4bbd f80f abbd cf85 8b3d
00000200: caa7 473d c8fb 6b3d 4a99 86bd a5b0 a73d
00000210: 1b54 a0bd d313 5fbd 8313 8abd b027 9fbd
00000220: 6e7b b7bd 2d36 b43d 4717 493d 772e c2bd
00000230: b33a 8cbd 81e9 613d 9f29 b63d 944a 5ebd
00000240: e802 3abd 59d1 b23d 34af b9bd 2db1 b4bd
00000250: 0aa6 9dbd 055f 5e3d 5850 393d dd9d a4bd
00000260: 1d77 9abd 4ee3 223d 350c b03d c51c b93d
00000270: 9447 c93d 8355 183d eb6a 8e3d 19dc 4c3d
00000280: a84b 9d3d 8eb4 813d ce04 413d 2c73 b03d
00000290: 51e0 b4bd 7757 713d e513 25bd 7730 96bd
000002a0: 8a06 ad3d 4037 afbd 25b2 99bd 38fc 3e3d
000002b0: de50 913d 9cf6 213d 7c9f 573d 1374 a03d
000002c0: 994d 8abd 5608 c93d 55ee a1bd ce3b 93bd
000002d0: 78d5 373d fb2e 8b3d 0a2c 7dbd f7b5 b43d
000002e0: d83c 6fbd 95c8 243d f6b9 b53d 2d7b bcbd
000002f0: 4566 acbd d9b2 85bd 97bb 433d aaf2 ba3d
00000300: 286d 893d f8f3 673d 4ffd c9bd dcf3 49bd
00000310: 3963 c0bd 9373 6cbd b7bd 9bbd 90ed 403d
00000320: f28f b03d 7276 9b3d a718 24bd 9fe3 b3bc
00000330: e551 80bd 427e 4dbd 78eb b13d 0476 90bd
00000340: 2ebd 333d 57e9 82bd 714f c83d 42e1 81bd
00000350: 69b7 9dbd ec9e c6bd 84bb 57bd 0742 a8bd
00000360: ae70 c13d f75f 34bd d507 6a3d 23ac b2bd
00000370: 8e72 8abd 7972 773d 7221 81bd b777 613d
00000380: c295 913d 8f46 c4bd 8aea c0bd 402f 3c3d
00000390: 3644 67bd d5c4 903d ff5a acbd e611 823d
000003a0: 2c63 a9bd 8e2e c33d 03bd 1cbd d2a2 6d3d
000003b0: 52d3 27bd c440 71bd ca8b c3bd e3d9 f7bc
000003c0: 6a07 24bd fb17 44bd 0c64 a33d 4328 643d
000003d0: 3395 4dbd 1013 a9bd 3cb9 c83d 4e25 973d
000003e0: c571 bc3d 818e 813d 414e 983d f4e4 58bd
000003f0: 715f 77bd 7419 69bd 0661 ae3d d2dd 22bd

bias f4 [64]
-0.0021479086 -0.058406796 -0.03108236 0.13300733 -0.03790577 -0.075126454 -0.057448328 -0.0029128268
0.089623384 -0.0445584 -0.02916623 -0.029497959 0.006047612 -0.038145173 0.055429704 -0.06495424
-0.020890472 -0.018569496 -0.031193446 -0.031837773 -0.06797754 -0.021476954 0.00043220294 -0.030376498
-0.035301436 -0.06920007 -0.03527042 0.0650992 0.073038265 -0.0316262 -0.030718863 -0.01565282
-0.0074789175 -0.026040204 -0.037710067 -0.0910227 0.020011215 -0.051453296 -0.007245001 -0.04873671
-0.022951037 -0.042011704 -0.04013496 0.13807327 -0.011334066 -0.020269122 0.09785652 0.41891363
-0.076161265 0.01935988 0.122987956 -0.007966913 0.27665532 -0.011045177 -0.008528762 -0.064897425
-0.048726276 -0.033831395 -0.030922089 -0.012107798 0.018665645 -0.033040434 0.013614397 0.07814232
00000000: edc3 0cbb f73b 6fbd 6fa0 febc 1333 083e
00000010: 1543 1bbd e6db 99bd f04e 6bbd 20e5 3ebb
00000020: 778c b73d de82 36bd 04ee eebc b4a5 f1bc
00000030: 0c2b c63b 1d3e 1cbd 420a 633d bb06 85bd
00000040: 7f22 abbc 0e1f 98bc 6689 ffbc 5368 02bd
00000050: cf37 8bbd 70f0 afbc 4c99 e239 22d8 f8bc
00000060: 3d98 10bd c4b8 8dbd b777 10bd bb52 853d
00000070: 1695 953d 798a 01bd 20a6 fbbc 583a 80bc
00000080: b511 f5bb 4452 d5bc df75 1abd 1c6a babd
00000090: 8fee a33c b1c0 52bd 7967 edbb 25a0 47bd
000000a0: d003 bcbc 7714 2cbd 8e64 24bd 1463 0d3e
000000b0: 85b2 39bc 6e0b a6bc 0069 c83d d97b d63e
000000c0: 70fa 9bbd 9c98 9e3c 1ce1 fb3d a887 02bc
000000d0: c4a5 8d3e d4f6 34bc 38bc 0bbc f1e8 84bd
000000e0: 3495 47bd ca92 0abd 5250 fdbc c95f 46bc
000000f0: b2e8 983c 6855 07bd eb0e 5f3c 1509 a03d

weight f4 [1, 64]
0.05251148 0.0027698872 -0.04678523 0.10314518 0.016942894 -0.010832378 0.028295463 0.073405266
0.034539923 0.056729484 0.016590372 -0.019178163 -1.7647695e-05 0.044700667 0.037178658 0.050128184
-0.0004619444 -0.0840317 -0.031814154 -0.002757835 -0.038134694 -0.010398373 0.02191842 0.12132348
-0.032512635 0.05825624 0.017759 0.035347205 0.038828038 0.03195937 -0.006891318 0.122477785
0.03487192 0.038696945 0.03132932 -0.03533434 0.05795085 -0.015286115 -0.027826022 0.022221737
0.10707462 0.036182255 -0.053750258 0.27885833 0.015181231 -0.046606794 0.070803575 -0.6977569
0.05213541 0.017438943 0.08806333 -0.025501514 -0.41561776 0.110531405 0.09214975 0.046811305
0.016199274 0.012863367 0.05254242 0.027527345 0.0073324195 0.00012616583 0.086361736 0.08320664
00000000: 4716 573d ff86 353b dfa1 3fbd c83d d33d
00000010: d3cb 8a3c 497a 31bc e3cb e73c 8055 963d
00000020: bc79 0d3d 2d5d 683d 88e8 873c 861b 9dbc
00000030: 230a 94b7 0c18 373d a648 183d 3653 4d3d
00000040: 2131 f2b9 d018 acbd 8f4f 02bd cbbc 34bb
00000050: 2033 1cbd f05d 2abc 428e b33c 7278 f83d
00000060: f82b 05bd 189e 6e3d 537b 913c 3bc8 103d
00000070: 260a 1f3d d4e7 023d 91d0 e1bb a2d5 fa3d
00000080: dcd5 0e3d b080 1e3d 2c53 003d beba 10bd
00000090: df5d 6d3d 9d72 7abc 66f3 e3bc 5c0a b63c
000000a0: f049 db3d d833 143d 3b29 5cbd 85c6 8e3e
000000b0: b3ba 783c c4e6 3ebd 7701 913d 32a0 32bf
000000c0: f18b 553d 1ddc 8e3c 8c5a b43d 8de8 d0bc
000000d0: dacb d4be 4a5e e23d 02b9 bc3d 36bd 3f3d
000000e0: 57b4 843c dfc0 523c b836 573d 0781 e13c
000000f0: cb44 f03b 624b 0439 6cde b03d 3e68 aa3d
